ml/unet_brain_segmentation.pth (torch, 925464 bytes, 35 tensors)

enc1.0.weight f4 [32, 3, 3, 3]
0.2663385 0.19974135 -0.04107904 0.082419015 0.014753544 -0.07709407 0.22798285 -0.15390436
-0.14921647 0.025003582 -0.0089552235 -0.12735392 0.15001334 0.054668076 0.019441668 -0.10531505
0.15739818 -0.015089673 -0.00031335914 0.20426787 0.06176203 0.19706656 0.082927816 -0.13568391
0.17087774 0.08921849 0.1780172 0.012071487 -0.17710172 -0.25374854 -0.035572242 -0.02018458
0.06953182 -0.08622153 0.07938874 -0.009746141 -0.18036084 -0.015605959 -0.016383756 0.035963323
-0.023072433 0.14130539 0.16904873 -0.18154618 0.0424277 -0.113199376 -0.16333331 -0.14985536
0.07017779 -0.13340636 -0.23277701 0.14247766 -0.12126418 -0.16277559 -0.08276973 0.1126558
0.16970776 -0.09891056 -0.0749412 0.03596324 0.037231103 -0.205207 -0.15093449 0.17735772
0.030251877 -0.12938873 0.060888946 -0.1850052 0.1623238 -0.0020736633 -0.20658703 -0.13486221
-0.09299829 0.031536534 0.0385575 0.032157592 0.17646748 0.108206056 -0.11423452 0.017187534
-0.21828248 -0.12407529 -0.21005556 -0.102434956 0.113204286 -0.060600623 -0.18486317 -0.0312118
-0.09802831 -0.07941627 -0.0392554 -0.1850931 -0.0850075 -0.12766564 0.069643825 -0.07508785
0.091342814 -0.07602711 0.07901691 -0.026690323 0.11778667 -0.12772019 -0.07456015 -0.06292761
0.03495148 0.047333043 0.044157304 -0.08747894 0.06871819 0.042168904 0.19989392 -0.036545713
-0.03911005 0.17168169 0.03801529 -0.08681432 0.18250658 -0.042121638 0.09048935 -0.082850955
-0.056726456 -0.19293585 0.100404486 -0.12668905 -0.13525395 -0.04609523 0.19368324 -0.049612135
0.09025421 0.07243782 -0.15505701 0.099901386 -0.07582072 -0.04453399 -0.11046641 -0.019312263
0.17895867 -0.062415067 -0.10304726 0.09118464 -0.059082292 0.1937064 0.14573365 0.2329495
0.20142668 0.0077637434 0.16430025 0.10746954 0.089742206 0.19924913 -0.027251933 -0.09219373
0.04568174 0.13300326 -0.09246567 0.0764163 -0.12362638 0.1325511 0.020486655 -0.011966459
0.01311008 0.05680034 -0.049570564 -0.108917 -0.20430113 0.0027440588 0.1332519 -0.012998763
0.104217246 0.0045522903 -0.110842004 0.15805638 -0.028335696 -0.014511879 0.09706209 -0.17529312
-0.13628358 -0.012051941 0.13610098 -0.20266233 -0.032739017 0.051113497 -0.006550175 0.051346574
-0.08472113 0.105359085 -0.11244474 -0.018167058 0.10288611 0.00552554 -0.1596005 -0.07467361
-0.019448163 -0.012373006 -0.1693386 0.110596634 0.033165865 0.16607122 -0.1843948 -0.16750954
-0.1683503 -0.15286753 0.032341085 -0.030474398 0.1935937 0.1483491 0.05115927 -0.11163746
-0.1272176 0.10797979 -0.15316862 -0.03545781 0.18503043 0.18617876 0.12844701 -0.05545244
-0.04495849 -0.033416312 0.116061136 0.22466652 0.09131615 0.0027589502 0.005738828 -0.010923969
-0.10807773 0.13966992 0.21979861 -0.08401786 -0.003538021 0.05164257 0.019038366 0.12669586
0.14448325 0.19762273 -0.0038593614 -0.095691994 -0.077914074 -0.12251107 0.14702423 0.073897414
0.18670006 -0.08578358 0.21276894 0.1505464 0.025707794 0.12795635 0.10593435 -0.0217437
0.078472614 -0.1799523 -0.056860603 -0.08163769 0.21096158 0.059940387 0.02814162 -0.11158653
00000000: 855d 883e ff88 4c3e 7f42 28bd 4dcb a83d
00000010: d9b8 713c 7fe3 9dbd 5674 693e 1b99 1dbe
00000020: 34cc 18be 50d4 cc3c eeb8 12bc 1169 02be
00000030: 199d 193e a2eb 5f3d 2244 9f3c 6baf d7bd
00000040: fd2c 213e ad3a 77bc 5a4a a4b9 992b 513e
00000050: 2ffa 7c3d d1cb 493e 0fd6 a93d b9f0 0abe
00000060: 93fa 2e3e 2fb8 b63d 244a 363e 7cc7 453c
00000070: 275a 35be 54eb 81be 33b4 11bd 225a a5bc
00000080: b366 8e3d ea94 b0bd 9096 a23d 47ae 1fbc
00000090: 83b0 38be 23b0 7fbc 3a37 86bc 474e 133d
000000a0: 6602 bdbc 5cb2 103e 1c1b 2d3e 3ee7 39be
000000b0: abc8 2d3d 13d5 e7bd d940 27be af73 19be
000000c0: 60b9 8f3d ad9b 08be 195d 6ebe aae5 113e
000000d0: 5b59 f8bd a5ae 26be 2d83 a9bd 16b8 e63d
000000e0: dfc7 2d3e 9f91 cabd c67a 99bd 314e 133d
000000f0: a47f 183d c921 52be 928e 1abe 439d 353e
00000100: c9d2 f73c 7b7e 04be b066 793d 0172 3dbe
00000110: 3638 263e 4ce6 07bb 8d8b 53be 5219 0abe
00000120: e375 bebd 742c 013d 78ee 1d3d aeb7 033d
00000130: e4b3 343e 239b dd3d caf3 e9bd dfcc 8c3c
00000140: 7185 5fbe 301b febd ce18 57be 6bc9 d1bd
00000150: a6d7 e73d 5c38 78bd c54c 3dbe e4af ffbc
00000160: 11c3 c8bd ffa4 a2bd 45ca 20bd 0c89 3dbe
00000170: 6a18 aebd c8ba 02be 6ca1 8e3d a9c7 99bd
00000180: f111 bb3d 1ab4 9bbd 9ed3 a13d aaa5 dabc
00000190: 233a f13d 15c9 02be feb2 98bd 31e0 80bd
000001a0: 4829 0f3d 4be0 413d 4ade 343d 2928 b3bd
000001b0: 1fbc 8c3d 4db9 2c3d feb0 4c3e f5b0 15bd
000001c0: dc31 20bd 53cd 2f3e ecb5 1b3d b5cb b1bd
000001d0: 01e3 3a3e bd87 2cbd 7b52 b93d c3ad a9bd
000001e0: 005a 68bd fa90 45be dea0 cd3d c6ba 01be
000001f0: 0380 0abe 5ace 3cbd e654 463e 1836 4bbd
00000200: 33d7 b83d 485a 943d 44c7 1ebe 1999 cc3d
00000210: e547 9bbd 4669 36bd 373c e2bd c034 9ebc
00000220: f140 373e f1a6 7fbd 710a d3bd 03bf ba3d
00000230: 4600 72bd f85a 463e 343b 153e 508a 6e3e
00000240: cc42 4e3e 0067 fe3b 533e 283e fd18 dc3d
00000250: c3ca b73d f707 4c3e 723f dfbc 11d0 bcbd
00000260: c71c 3b3d 0232 083e a45e bdbd 2680 9c3d
00000270: d42f fdbd 7abb 073e a1d3 a73c f80e 44bc
00000280: a9cb 563c 79a7 683d 810a 4bbd e00f dfbd
00000290: 5134 51be abd5 333b 3073 083e c3f8 54bc
000002a0: da6f d53d 612b 953b 2201 e3bd 88d9 213e
000002b0: 4320 e8bc 3bc3 6dbc 7dc8 c63d 0a80 33be
000002c0: ec8d 0bbe 8175 45bc 0e5e 0b3e b786 4fbe
000002d0: 5919 06bd 635c 513d daa2 d6bb c950 523d
000002e0: 4682 adbd 81c6 d73d 6e49 e6bd 15d3 94bc
000002f0: f4b5 d23d 970f b53b 506e 23be 7aee 98bd
00000300: c151 9fbc 26b8 4abc 1967 2dbe 7d80 e23d
00000310: eed8 073d 930e 2a3e fed1 3cbe 9f87 2bbe
00000320: 0564 2cbe 4e89 1cbe 1678 043d 72a5 f9bc
00000330: 6d3d 463e d4e8 173e 628c 513d 2ea2 e4bd
00000340: 5545 02be 8224 dd3d 3cd8 1cbe 353c 11bd
00000350: 9e78 3d3e a5a5 3e3e 9d87 033e 1922 63bd
00000360: 6526 38bd 8bdf 08bd 76b1 ed3d fb0e 663e
00000370: f603 bb3d 81cf 343b c70c bc3b 72fa 32bc
00000380: db57 ddbd a205 0f3e e312 613e 8e11 acbd
00000390: 24de 67bb 2987 533d 59f6 9b3c 8fbc 013e
000003a0: 6bf3 133e 9d5d 4a3e 57ed 7cbb 2afa c3bd
000003b0: 6a91 9fbd 15e7 fabd 858d 163e 8757 973d
000003c0: 4d2e 3f3e 4daf afbd 1ae0 593e d628 1a3e
000003d0: 2799 d23c fd06 033e 1cf4 d83d d81f b2bc
000003e0: 40b6 a03d 6a45 38be aae6 68bd a931 a7bd
000003f0: 5006 583e 0d84 753d 4189 e63c 7b87 e4bd

enc1.0.bias f4 [32]
-0.062419925 0.091130555 -0.103493914 0.1366314 -0.040677376 -0.10675362 -0.25967252 -0.14754444
-0.14867376 0.111246355 -0.098635554 -0.12572451 -0.06515044 -0.11956169 0.08675131 -0.107649215
0.07677331 -0.17133749 -0.009511173 0.12703338 -0.07079685 0.17402698 -0.0017491637 0.18311717
-0.13350847 0.16838662 0.13841435 -0.131627 0.09335402 0.043799844 0.09943812 -0.17036237
00000000: 09ac 7fbd a8a2 ba3d 9ef4 d3bd 1ae9 0b3e
00000010: 529d 26bd a4a1 dabd ccf3 84be e415 17be
00000020: ef3d 18be 21d5 e33d 7001 cabd edbd 00be
00000030: 986d 85bd c2dc f4bd acaa b13d 3177 dcbd
00000040: 533b 9d3d 1873 2fbe c0d4 1bbc 0a15 023e
00000050: f0fd 90bd 2134 323e 3244 e5ba 1183 3b3e
00000060: 72b6 08be 8b6d 2c3e 7ebc 0d3e 3ac9 06be
00000070: 6430 bf3d 7767 333d 37a6 cb3d 7973 2ebe

enc1.1.weight f4 [32]
0.96810853 0.9888511 0.9797778 1.001613 1.0331767 0.954664 0.9663856 1.022269
0.96238214 1.0248375 1.0349318 0.9856901 0.96197754 1.0156242 1.0638123 1.0086956
0.9842017 0.9878067 0.99100685 0.98202354 1.0043148 0.9800839 0.9983905 0.90924275
0.9441997 0.9824442 0.9990645 0.9982331 0.99802446 1.0103507 1.0043857 0.98218536
00000000: f6d5 773f 5825 7d3f b8d2 7a3f db34 803f
00000010: 223f 843f dc64 743f 0c65 773f b6d9 823f
00000020: ad5e 763f e02d 833f a578 843f 3056 7c3f
00000030: 2944 763f f9ff 813f 002b 883f f01c 813f
00000040: a5f4 7b3f e6e0 7c3f a0b2 7d3f e565 7b3f
00000050: 638d 803f c7e6 7a3f 8596 7f3f 22c4 683f
00000060: 12b7 713f 7781 7b3f b1c2 7f3f 348c 7f3f
00000070: 887e 7f3f 2c53 813f b68f 803f 8070 7b3f

enc1.1.bias f4 [32]
-0.05799762 -0.049157135 -0.017690599 -0.020381903 0.032216035 -0.042995702 -0.038327992 0.0008201972
-0.064455226 -0.013662508 0.0170145 -0.030521316 -0.017310271 -0.036272697 0.018107649 -0.026863674
-0.05387625 -0.015148611 -0.033015363 -0.040128537 -0.023184093 -0.05116797 -0.025805261 -0.114232175
-0.076586716 -0.04257849 -0.018233024 -0.035943054 -0.019317575 -0.021968251 -0.015645737 -0.055145994
00000000: ea8e 6dbd fe58 49bd e0eb 90bc f3f7 a6bc
00000010: f6f4 033d 431c 30bd d0fd 1cbd 8102 573a
00000020: 1a01 84bd b6d8 5fbc fe61 8b3c d707 fabc
00000030: 45ce 8dbc ae92 14bd 7e56 943c 3511 dcbc
00000040: 58ad 5cbd e131 78bc 1e3b 07bd d25d 24bd
00000050: 91ec bdbc 8195 51bd 8e65 d3bc 8ff2 e9bd
00000060: 7fd9 9cbd c866 2ebd 6c5d 95bc 0639 13bd
00000070: e43f 9ebc c3f6 b3bc 7d2b 80bc c4e0 61bd

enc1.1.running_mean f4 [32]
0.46193084 -0.4113073 -0.23371963 -0.33912274 -0.010825828 0.46405056 -0.34251297 -0.2616182
0.34307602 0.037158772 -0.10584152 -0.23799644 -0.11601083 -0.08948757 0.0733519 -0.56126815
0.5715182 -0.17041624 -0.33309367 -0.27158862 -0.6501951 0.80503917 -0.6000662 0.56472456
0.296454 0.7828605 -0.19046354 -0.671304 -0.62296593 -0.32933295 -0.5383876 0.1924775
00000000: 3382 ec3e df96 d2be 3354 6fbe 7fa1 adbe
00000010: d05e 31bc 0998 ed3e dc5d afbe d2f2 85be
00000020: a9a7 af3e cc33 183d 70c3 d8bd 57b5 73be
00000030: 1697 edbd 4245 b7bd 8539 963d 45af 0fbf
00000040: 044f 123f 9881 2ebe 418b aabe aa0d 8bbe
00000050: 3073 26bf 0c17 4e3f f09d 19bf ca91 103f
00000060: d2c8 973e 8c69 483f e008 43be 94da 2bbf
00000070: b27a 1fbf 549e a8be c5d3 09bf d218 453e

enc1.1.running_var f4 [32]
0.18214545 0.16494633 0.019764727 0.1467151 0.0070509277 0.20563853 0.007620338 0.024722164
0.15360293 0.013834494 0.007209536 0.012873371 0.013496202 0.016226443 0.0151419705 0.12968881
0.15261179 0.0036567017 0.065477215 0.09919644 0.21819471 0.24766679 0.23296523 0.10105088
0.11864052 0.23462535 0.06647858 0.18323515 0.3225438 0.08688214 0.26286313 0.08310473
00000000: 5684 3a3e b1e7 283e a3e9 a13c 7c3c 163e
00000010: 780b e73b e892 523e 07b4 f93b 2386 ca3c
00000020: 164a 1d3e 13aa 623c f93d ec3b d5ea 523c
00000030: 2d1f 5d3c 51ed 843c 0716 783c 25cd 043e
00000040: 4446 1c3e 46a5 6f3b eb18 863d 8127 cb3d
00000050: 6f6e 5f3e 5d9c 7d3e 708e 6e3e c4f3 ce3d
00000060: cdf9 f23d a141 703e ec25 883d ffa1 3b3e
00000070: 7624 a53e 43ef b13d ff95 863e d032 aa3d

enc2.0.weight f4 [64, 32, 3, 3]
0.038408905 -0.05418132 -0.03068017 -0.027364356 0.010932409 -0.03309659 0.024294797 -0.006521689
0.008362426 0.06346961 0.02715671 -0.017921515 0.0007594529 -0.013736294 -0.010084678 0.05722931
-0.02491958 0.046200447 -0.031704083 0.047143083 -0.044095904 0.012373928 0.008588736 0.04920428
0.012544467 0.0706692 -0.01589852 0.052444316 0.021198997 0.024516445 -0.04431572 0.04475345
-0.007888463 0.020467624 -0.045940552 0.004266952 -0.1244199 -0.06732461 -0.073986664 -0.13446876
-0.13693279 -0.13435768 -0.055607952 -0.10746066 -0.06558991 0.055043194 -0.007091976 -0.03536123
0.0648591 0.031261165 -0.00879681 0.02135794 0.023158321 -0.0039786273 0.043615703 0.011715216
0.06197215 0.024345148 -0.015877293 0.04435854 0.029293986 0.011544519 -0.05354358 0.091482885
0.09524153 0.068928644 0.014155086 0.021070855 0.08127359 0.025751473 -0.038419154 0.020970734
0.062071145 0.0058215493 0.021106575 -0.02342976 0.035690237 0.04278101 0.039324068 0.038024463
-0.030018413 0.039237745 0.016951798 0.025394194 -0.048943277 0.05009091 -0.008948732 0.059649035
0.070045814 0.0866231 0.0073428517 0.0051490255 -0.002350553 -0.09043754 -0.073477946 -0.12144954
-0.05305675 -0.084537014 -0.046610005 0.10324196 0.10272035 0.06359747 -0.0047659264 -0.016477091
0.00831283 0.028159624 0.023630971 -0.05091692 -0.01488078 0.008958 -0.022643857 -0.060433567
-0.058121953 -0.06060737 -0.049037833 0.00033733866 0.03812882 -0.022829622 0.06742384 0.01960941
0.008033006 0.013753056 0.037291203 -0.040508784 -0.040990822 -0.0032495172 0.046250448 0.10613225
0.0378334 -0.007829572 -0.043414794 0.03267887 -0.04095089 -0.032931387 -0.005417717 -0.0102878
0.003983863 -0.0035967198 0.014550388 0.035734903 0.0002583643 -0.025838803 -0.0059324666 0.005861225
-0.04584411 -0.055023417 -0.012355315 0.022307562 0.03926935 -0.042743254 0.0743517 0.07041302
-0.029840337 -6.265812e-05 0.030219443 -0.0034734823 0.02975587 -0.038745843 -0.08706895 -0.0559031
-0.0710832 -0.093489446 0.073024146 -0.01992626 -0.018442582 -0.02405943 -0.031525664 0.06980712
-0.02237041 0.015401912 0.017459504 0.023288602 0.051249035 0.03414677 0.034445953 0.019212825
0.00023862942 0.011614461 0.0018341579 -0.026210941 0.039682373 0.06138292 -0.0044495612 0.060031462
-0.010188303 0.042980086 -0.040323455 -0.011504493 0.06509856 -0.018852526 -0.014710841 0.022674358
0.037013564 -0.034498457 0.003552805 -0.017996999 0.0013489887 0.0030037656 -0.023469768 -0.00017092898
0.029184647 0.06282915 0.028985787 0.028319564 -0.041792586 0.031736653 0.069202855 -0.0003813359
0.021906162 -0.035307027 0.054948855 0.004900978 0.011237735 -0.00508621 0.021233808 0.049664576
-0.024010736 -0.012138778 -0.049171835 0.06270738 -0.03199985 0.050891776 0.024975572 0.049001265
0.04034781 0.042862788 -0.042002317 0.033894867 0.071490504 0.06739997 0.035458293 0.06044012
0.049615286 -0.01649975 0.021665933 -0.04151258 0.035920605 0.061565656 0.03354916 -0.048454955
0.049166147 0.055067882 0.032587998 0.010345484 0.03633767 -0.011762351 -0.01154734 0.05042267
-0.03355854 0.035319917 0.030101743 -0.037826467 0.028776718 0.05865965 0.004380246 0.01319547
00000000: a852 1d3d 3bed 5dbd fb54 fbbc 372b e0bc
00000010: d91d 333c 4a90 07bd e205 c73c e4b3 d5bb
00000020: 8f02 093c 5bfc 813d c077 de3c 24d0 92bc
00000030: 0516 473a 310e 61bc 353a 25bc 4869 6a3d
00000040: 2624 ccbc ae3c 3d3d 24dc 01bd 1b19 413d
00000050: e89d 34bd 04bc 4a3c c5b7 0c3c 6d8a 493d
00000060: 4f87 4d3c 03bb 903d 9d3d 82bc dacf 563d
00000070: 85a9 ad3c b6d6 c83c 6784 35bd 654f 373d
00000080: 9d3e 01bc b8ab a73c 292c 3cbd cad1 8b3b
00000090: dccf febd 7ce1 89bd 5286 97bd 2eb2 09be
000000a0: 1c38 0cbe 0f95 09be 2ac5 63bd 5614 dcbd
000000b0: 0154 86bd f974 613d ce63 e8bb f0d6 10bd
000000c0: d9d4 843d b50b 003d 7f20 10bc d9f6 ae3c
000000d0: 85b6 bd3c 255f 82bb 61a6 323d 2df1 3f3c
000000e0: 82d6 7d3d 7a6f c73c 1911 82bc 4db1 353d
000000f0: f1f9 ef3c 3925 3d3c 8350 5bbd 615b bb3d
00000100: fe0d c33d 762a 8d3d bcea 673c c99c ac3c
00000110: c572 a63d c1f4 d23c 675d 1dbd d1ca ab3c
00000120: 503e 7e3d b2c2 be3b b2e7 ac3c c5ef bfbc
00000130: ed2f 123d 243b 2f3d 4612 213d 8abf 1b3d
00000140: 2de9 f5bc c2b7 203d 7fde 8a3c 7c07 d03c
00000150: bf78 48bd 202c 4d3d b49d 12bc 8c52 743d
00000160: 2e74 8f3d 7467 b13d 4e9c f03b 28b9 a83b
00000170: bc0b 1abb 5137 b9bd 9b7b 96bd 89ba f8bd
00000180: 0952 59bd be21 adbd 22ea 3ebd 8570 d33d
00000190: 0c5f d23d 643f 823d 7d2b 9cbb f7fa 86bc
000001a0: 8932 083c 03af e63c bd95 c13c 438e 50bd
000001b0: 84ce 73bc 93c4 123c 9c7f b9bc 3089 77bd
000001c0: 4911 6ebd 6f3f 78bd e5db 48bd d4dc b039
000001d0: f72c 1c3d 3005 bbbc 8315 8a3d eaa3 a03c
000001e0: df9c 033c 7f54 613c a9be 183d 8aec 25bd
000001f0: fee5 27bd daf5 54bb 1c71 3d3d dd5b d93d
00000200: 32f7 1a3d 9b47 00bc b6d3 31bd 47da 053d
00000210: 1fbc 27bd 10e3 06bd 1b87 b1bb 298e 28bc
00000220: 118b 823b f2b6 6bbb c064 6e3c c35e 123d
00000230: 1275 8739 e6ab d3bc 2365 c2bb 850f c03b
00000240: 09c7 3bbd 3c60 61bd f26d 4abc 59be b63c
00000250: e6d8 203d 8d13 2fbd b445 983d b434 903d
00000260: b973 f4bc 5267 83b8 c48e f73c 5da3 63bb
00000270: 95c2 f33c f6b3 1ebd 3551 b2bd a6fa 64bd
00000280: 1294 91bd 6577 bfbd af8d 953d 653c a3bc
00000290: e614 97bc 4818 c5bc 0e21 01bd 09f7 8e3d
000002a0: 2642 b7bc 4d58 7c3c 3c07 8f3c bdc7 be3c
000002b0: 82ea 513d 7cdd 0b3d 3317 0d3d 3764 9d3c
000002c0: 9938 7a39 954a 3e3c 2068 f03a 54b8 d6bc
000002d0: fc89 223d a86c 7b3d a0cd 91bb 8de3 753d
000002e0: d7ec 26bc e30b 303d 352a 25bd 577d 3cbc
000002f0: 6552 853d 9d70 9abc bd05 71bc 93bf b93c
00000300: 899b 173d 414e 0dbd 2dd6 683b 716e 93bc
00000310: 8dd0 b03a d3da 443b ac43 c0bc 663b 33b9
00000320: a414 ef3c 92ac 803d 9a73 ed3c 6efe e73c
00000330: b42e 2bbd 4bfe 013d 3aba 8d3d 0aee c7b9
00000340: 8d74 b33c 1a9e 10bd 0d12 613d 6298 a03b
00000350: 7a1e 383c 39aa a6bb 86f2 ad3c 156d 4b3d
00000360: 2ab2 c4bc bae1 46bc 6868 49bd ba6c 803d
00000370: 4612 03bd e573 503d 9299 cc3c 8db5 483d
00000380: bf43 253d e490 2f3d 9f0a 2cbd 58d5 0a3d
00000390: 9d69 923d ff08 8a3d b73c 113d 0f90 773d
000003a0: 6639 4b3d 7c2a 87bc c17c b13c 1809 2abd
000003b0: 7c21 133d 452c 7c3d d86a 093d b478 46bd
000003c0: 7162 493d dc8e 613d fe7a 053d 1b80 293c
000003d0: cfd6 143d e0b6 40bc 0e31 3dbc 0088 4e3d
000003e0: ae74 09bd 9eab 103d ee97 f63c edef 1abd
000003f0: 27bd eb3c 1a45 703d 2b88 8f3b d031 583c

enc2.0.bias f4 [64]
0.0104234135 0.031793147 -0.008188836 0.016712101 -0.042386897 -0.044773567 0.0076954076 -0.028843207
0.010283549 -0.051027868 -0.009345717 -0.009297905 -0.03427738 -0.0030617036 0.069679566 0.00048140687
0.00041736302 2.8504528e-05 -0.006937038 -0.011176326 0.048664264 0.005180923 -0.032996763 -0.047461834
-0.068047434 -0.004278574 -0.020788325 -0.007060943 0.0048627662 -0.060721982 0.033581596 0.0054741586
0.050058153 0.0076461225 -0.025807993 -0.05872826 0.042887174 -0.022084715 -0.017810259 -0.05802691
0.037711345 -0.07296142 0.009344276 -0.031543605 -0.05276329 -0.070688106 -0.059287295 -0.033821125
-0.05745817 0.01736076 0.056447875 -0.040214386 -0.017620135 -0.009003572 0.033513866 0.022390915
-0.005651904 -0.011061038 -0.04585623 -0.038188517 0.017548036 -0.045088306 -0.07172777 0.021845585
00000000: f7c6 2a3c 8839 023d 782a 06bc d1e7 883c
00000010: e29d 2dbd 7d64 37bd c229 fc3b 9748 ecbc
00000020: 557c 283c 9902 51bd c71e 19bc 3d56 18bc
00000030: 7066 0cbd dda6 48bb 29b4 8e3d 5665 fc39
00000040: 84d1 da39 021d ef37 1850 e3bb e91c 37bc
00000050: 2e54 473d bbc4 a93b 9d27 07bd 5767 42bd
00000060: 745c 8bbd 4833 8cbb 474c aabc 7c5f e7bb
00000070: d757 9f3b 9db7 78bd db8c 093d 9260 b33b
00000080: c709 4d3d 538c fa3b 496b d3bc 0b8d 70bd
00000090: 76aa 2f3d 01eb b4bc d2e6 91bc a0ad 6dbd
000000a0: 3677 1a3d cc6c 95bd bc18 193c de33 01bd
000000b0: 521e 58bd edc4 90bd 3cd7 72bd 0588 0abd
000000c0: 4259 6bbd 2738 8e3c e335 673d d7b7 24bd
000000d0: 1a58 90bc b883 13bc d645 093d 276d b73c
000000e0: 9b33 b9bb 5b39 35bc bed3 3bbd 906b 1cbd
000000f0: e6c0 8f3c 84ae 38bd 02e6 92bd 83f5 b23c

enc2.1.weight f4 [64]
0.96601415 0.9836405 1.0737427 0.9457935 0.9239354 1.0573101 0.9390078 0.92335266
0.964277 0.9673519 0.97283137 0.93424356 1.003848 0.9759257 0.97955513 0.9916471
1.000111 0.9832392 1.0663462 1.0215602 1.1351211 0.9614124 0.92658454 0.98776764
1.0378594 1.0926542 0.9650604 1.0547953 0.9775463 0.99832934 0.9807489 0.9628866
1.0624812 0.8730356 1.0310903 0.9262831 0.97074294 1.0029187 1.0304145 1.0106753
1.0617085 1.0685132 0.96633595 0.9797931 0.9707596 1.0089136 1.0203186 0.9521446
0.9995917 1.096235 0.9876556 0.98819757 0.97747374 1.1053269 0.9570754 0.982662
0.9316649 0.99979776 0.9364981 1.0131952 0.98787755 1.0119461 0.94764113 0.97035
00000000: b44c 773f ddcf 7b3f 6770 893f 861f 723f
00000010: 0887 6c3f f055 873f d162 703f d760 6c3f
00000020: dcda 763f 60a4 773f 7a0b 793f 962a 6f3f
00000030: 177e 803f 44d6 793f 20c4 7a3f 96dc 7d3f
00000040: a303 803f 90b5 7b3f 087e 883f 7cc2 823f
00000050: a64b 913f 1f1f 763f a534 6d3f 57de 7c3f
00000060: 94d8 843f 18dc 8b3f 330e 773f 8803 873f
00000070: 7940 7a3f 8392 7f3f 5c12 7b3f bc7f 763f
00000080: 62ff 873f 437f 5f3f c4fa 833f e420 6d3f
00000090: 9c82 783f a45f 803f 9fe4 833f cf5d 813f
000000a0: 10e6 873f 0ac5 883f cb61 773f b8d3 7a3f
000000b0: b383 783f 1524 813f cd99 823f c0bf 733f
000000c0: 3ee5 7f3f 6e51 8c3f ffd6 7c3f 84fa 7c3f
000000d0: b83b 7a3f 5a7b 8d3f e502 753f bd8f 7b3f
000000e0: 9781 6e3f bff2 7f3f 57be 6f3f 61b0 813f
000000f0: 8be5 7c3f 7387 813f 9c98 723f dc68 783f

enc2.1.bias f4 [64]
-0.13454153 -0.0454006 -0.097601816 -0.093364514 -0.12032272 -0.07082214 -0.049181134 -0.11216143
-0.017508173 -0.037797965 -0.05229373 -0.06720722 -0.113003254 -0.13822812 -0.11718632 -0.08253401
0.023357753 -0.0079982765 -0.10938753 0.000653874 0.0005855475 -0.076954626 -0.09298466 -0.014878407
-0.0041802647 -0.038723506 -0.003658994 -0.05474575 -0.03608965 0.007613454 -0.13079487 -0.13190041
0.044655096 -0.09463929 -0.038566418 -0.0865425 -0.08763525 -0.09827028 0.011711869 -0.100484304
0.01994799 -0.108416565 -0.053665414 -0.024262145 -0.045048058 -0.08955781 -0.11012721 -0.04074103
0.009516632 -0.08191819 0.0009888569 -0.026166266 -0.06422379 -0.10609629 -0.054738015 -0.111139834
-0.06747912 -0.09151846 -0.145005 -0.080796994 -0.0043768967 -0.108267374 -0.010933574 -0.002798599
00000000: 41c5 09be fbf5 39bd 76e3 c7bd e535 bfbd
00000010: c26b f6bd 330b 91bd 2872 49bd e4b4 e5bd
00000020: 4d6d 8fbc 0ad2 1abd f331 56bd f0a3 89bd
00000030: 406e e7bd ac8b 0dbe 62ff efbd 9707 a9bd
00000040: c258 bf3c 340b 03bc 9206 e0bd be68 2b3a
00000050: 6d7f 193a 639a 9dbd be6e bebd 90c4 73bc
00000060: 9afa 88bb 8a9c 1ebd bccb 6fbb 143d 60bd
00000070: bed2 13bd 487a f93b 17ef 05be e710 07be
00000080: 43e8 363d 3ed2 c1bd d2f7 1dbd 323d b1bd
00000090: 1c7a b3bd ee41 c9bd 24e3 3f3c b7ca cdbd
000000a0: f869 a33c 8109 debd 44d0 5bbd 68c1 c6bc
000000b0: 5084 38bd 166a b7bd 608a e1bd 11e0 26bd
000000c0: a6eb 1b3c b9c4 a7bd 889c 813a a35a d6bc
000000d0: c387 83bd 0349 d9bd f834 60bd 489d e3bd
000000e0: 7e32 8abd 086e bbbd 317c 14be e578 a5bd
000000f0: 126c 8fbb 49bb ddbd bc22 33bc b368 37bb

enc2.1.running_mean f4 [64]
0.9107889 1.1735471 -0.48215824 0.8736829 0.7795378 0.21706712 1.680189 0.8927842
-0.9715208 -0.59529775 -0.7150562 -0.57849985 -0.95766205 2.1933517 2.3028376 -1.1486988
-2.295586 1.342506 -0.93723977 0.5523131 -1.0245295 1.2905507 1.0972319 -1.6411246
-0.48864472 -0.8149184 -3.681546 -0.5360279 1.7555337 -3.2686777 1.546766 2.5189018
-3.2894402 -1.0232216 1.0134279 1.8992192 1.7162483 1.096318 1.5113423 -0.7366005
-1.7488674 -0.36370134 0.9538635 1.530244 -2.9678473 1.6207974 0.82300365 -3.4879503
-2.306436 0.13659644 -3.2016995 -3.3874292 -1.6472602 -0.031049993 0.24897733 3.1183102
-0.79820806 0.5410132 -0.07364239 1.3652729 2.190844 0.052949987 -0.8782636 -1.636223
00000000: 7629 693f cb36 963f 72dd f6be afa9 5f3f
00000010: ca8f 473f d846 5e3e 6f10 d73f 818d 643f
00000020: 96b5 78bf 6f65 18bf ec0d 37bf 9118 14bf
00000030: 5729 75bf e05f 0c40 b161 1340 9008 93bf
00000040: e2ea 12c0 3dd7 ab3f f2ee 6fbf 6464 0d3f
00000050: c823 83bf c430 a53f 1872 8c3f 5f10 d2bf
00000060: a42f fabe 7e9e 50bf 739e 6bc0 2039 09bf
00000070: 54b5 e03f 0432 51c0 6efc c53f b035 2140
00000080: 3086 52c0 edf8 82bf 01b8 813f 9d19 f33f
00000090: 06ae db3f 2654 8c3f aa73 c13f da91 3cbf
000000a0: e3da dfbf 1037 babe 6630 743f 09df c33f
000000b0: 36f1 3dc0 4a76 cf3f 5eb0 523f 943a 5fc0
000000c0: a69c 13c0 f0df 0b3e a5e8 4cc0 a4cb 58c0
000000d0: 6cd9 d2bf 8e5c febc eaf3 7e3e 6592 4740
000000e0: 5d57 4cbf d77f 0a3f d2d1 96bd 43c1 ae3f
000000f0: ca36 0c40 16e2 583d e2d5 60bf c16f d1bf

enc2.1.running_var f4 [64]
2.1092849 1.9929338 2.4908538 1.1287478 1.9058096 1.7692765 2.472088 1.8193827
1.711042 0.96855754 1.357206 3.19564 2.7666233 1.491864 1.3766347 2.5712821
3.8448725 3.7439563 2.2515407 2.0682495 1.5319042 2.8447852 1.8289597 3.6548078
1.2314794 1.216749 5.4365435 1.9452485 2.0391157 8.340188 1.6310805 2.1762896
3.7812433 2.8014967 2.4199116 4.330814 3.3371458 1.952627 3.4462214 2.1706138
2.7483559 2.1778743 1.0222421 5.6812763 6.0999937 1.5616349 1.0602417 7.7813535
4.0501266 2.1754544 7.4684668 11.749686 2.6841764 2.0838752 3.4255164 2.4160697
1.6927285 0.7025743 3.186001 3.37508 3.6336043 1.7813766 1.8076043 4.945645
00000000: 86fe 0640 7418 ff3f 266a 1f40 cf7a 903f
00000010: 92f1 f33f a777 e23f b136 1e40 88e1 e83f
00000020: 6d03 db3f 63f3 773f edb8 ad3f 5e85 4c40
00000030: 5b10 3140 66f5 be3f 9135 b03f e38f 2440
00000040: 6412 7640 fb9c 6f40 3e19 1040 335e 0440
00000050: 7015 c43f f610 3640 5a1b ea3f 5fe8 6940
00000060: 1ea1 9d3f 6ebe 9b3f 2af8 ad40 e7fd f83f
00000070: df80 0240 6971 0541 3fc7 d03f 5448 0b40
00000080: e4ff 7140 b94b 3340 d5df 1a40 0796 8a40
00000090: cc93 5540 aeef f93f e48e 5c40 56eb 0a40
000000a0: 10e5 2f40 4b62 0b40 d4d8 823f 04cd b540
000000b0: 2633 c340 a7e3 c73f 00b6 873f d900 f940
000000c0: a39a 8140 a53a 0b40 aefd ee40 b7fe 3b41
000000d0: 8cc9 2b40 365e 0540 a93b 5b40 e3a0 1a40
000000e0: 54ab d83f e9db 333f 71e7 4b40 5001 5840
000000f0: f98c 6840 2604 e43f 945f e73f b942 9e40

enc3.0.weight f4 [128, 64, 3, 3]
0.037192762 0.03522827 0.05418769 -0.001801256 -0.034084324 -0.019829046 0.0068596858 0.0039051245
-0.040727183 0.023134964 0.050906207 0.07160525 -0.0042493762 0.02696183 0.025746055 0.057382032
-0.007738248 0.028878374 0.02459132 0.012092233 0.031092128 0.040520854 -0.009753846 0.012352954
0.069605425 -0.010110767 0.09608687 0.019406242 -0.02790708 0.012214145 0.040778764 0.02475158
0.017953696 0.07859348 0.032727994 0.023089651 -0.025224462 -0.014410633 0.03937947 -0.015565037
-0.042068917 0.010775082 -0.03234445 0.012787452 0.010636105 0.0028217689 -0.04601945 -0.011783565
-0.003841493 -0.07164318 -0.053926684 0.003993272 -0.06006498 -0.053783357 0.033277113 0.023399314
0.058375932 -0.034732316 -0.019455612 -0.022361359 0.033369306 0.027938653 -0.011682923 -0.0014727309
-0.016004276 -0.025664153 0.05721484 0.022914058 -0.029456142 0.022455208 0.04124452 -0.04895877
-0.070421845 -0.048891217 0.04830424 -0.045962825 -0.0730416 5.572923e-05 -0.090218455 -0.03751953
0.03181275 -0.035521116 -0.049763788 -0.07625748 -0.10021251 -0.072802484 -0.082336 -0.06846733
-0.01016511 -0.053197104 0.018942282 0.0148735605 0.039456744 0.0023552978 -0.026231414 -0.024054063
-0.03496058 -0.010508775 0.004378524 0.0075780996 0.019848537 -0.004068434 0.03072578 0.027545258
-0.01747882 0.053121816 0.04154515 -0.020568695 0.0019622375 -0.05585136 -0.012020191 -0.0036931722
0.0013412371 0.004630859 0.07901235 -0.015747055 -0.022964587 -0.006907801 -0.00623515 -0.016215622
0.0078115505 0.02995357 0.031174272 -0.020135764 0.03289683 -0.011077133 0.014610207 0.039706193
-0.06876561 -0.00068922783 0.009428152 0.0054107476 0.056524526 -0.00347251 -0.036988903 0.0436427
0.00047639178 0.064918235 0.008488782 -0.015013417 0.025461402 0.037293136 0.04910706 0.042865492
-0.0112804 -0.036429867 -0.035342358 -0.027877614 0.013803191 -0.0009977602 -0.08994442 -0.010459091
-0.04926985 0.028193347 -0.03724613 -0.00073416624 -0.0014541671 -0.0011812149 -0.020531837 0.02399413
0.035035923 -0.01422211 0.033828657 -0.058221176 -0.020718444 0.050483063 -0.061843727 -0.016863992
0.074118614 -6.418748e-06 0.03992985 0.062251482 0.050998177 0.11758254 -0.023486106 0.004128999
0.027617129 -0.030759655 -0.011429325 -0.0057579423 0.020817386 0.01377069 0.08884283 -0.023147345
-0.05100362 0.031091891 -0.031194577 0.018010829 0.09316245 0.070450276 0.051183496 0.062404882
-0.008997618 -0.047088116 0.019050287 0.01880206 0.05002107 0.048567202 0.020450193 0.0372346
-0.012480651 -0.00050059834 0.028825242 -0.018275652 -0.010652324 -0.0039184247 -0.027875237 -0.042254247
-0.06796647 -0.00071523024 -0.09308174 -0.019699138 -0.0002279478 -0.043328475 -0.04670027 -0.068161555
0.048554912 -0.007464401 0.024158863 0.01943939 -0.038814217 0.019500542 -0.0070564044 0.01292637
-0.012645632 -0.0012617533 0.04060309 0.08090783 -0.05991551 -0.035981733 0.030481363 -0.06258094
-0.030112037 0.10578807 -0.027980197 0.019505633 -0.023179354 -0.05410495 -0.037263166 0.01144272
-0.042281166 -0.018567817 -0.06767511 0.066795714 0.014759938 -0.013371331 0.09029147 0.061999254
0.03403696 0.095833324 -0.020288227 0.0060303384 0.07048217 -0.02214101 0.025738014 0.0048170285
00000000: 7057 183d 854b 103d e9f3 5d3d 1f18 ecba
00000010: 019c 0bbd 8670 a2bc 37c7 e03b 1eed 7f3b
00000020: 8cd1 26bd 8985 bd3c 0783 503d c6a5 923d
00000030: 5a3e 8bbb 0edf dc3c 64e9 d23c 6c09 6b3d
00000040: 2191 fdbb 5792 ec3c bc73 c93c 801e 463c
00000050: ebb4 fe3c 32f9 253d 98ce 1fbc 0b64 4a3c
00000060: 4a8d 8e3d a1a7 25bc 31c9 c43d d7f9 9e3c
00000070: 639d e4bc d61d 483c a207 273d d3c3 ca3c
00000080: a113 933c 9ef5 a03d ca0d 063d 8226 bd3c
00000090: 88a3 cebc 931a 6cbc 5e4c 213d 7f04 7fbc
000000a0: 7550 2cbd f889 303c 9d7b 04bd 7682 513c
000000b0: 0f43 2e3c 6ded 383b e47e 3cbd db0f 41bc
000000c0: 8fc1 7bbb a9b9 92bd 3ae2 5cbd fed9 823b
000000d0: b206 76bd f04b 5cbd 954d 083d ebaf bf3c
000000e0: 9a1b 6f3d 7943 0ebd 6061 9fbc 2b2f b7bc
000000f0: 41ae 083d 9adf e43c bb69 3fbc a608 c1ba
00000100: 661b 83bc a13d d2bc 1c5a 6a3d 43b6 bb3c
00000110: 024e f1bc fcf3 b73c 04f0 283d fe88 48bd
00000120: 5439 90bd 2842 48bd abda 453d 8443 3cbd
00000130: d696 95bd cebe 6938 74c4 b8bd 14ae 19bd
00000140: 164e 023d 977e 11bd 1dd5 4bbd e22c 9cbd
00000150: 373c cdbd 7819 95bd c79f a8bd 9938 8cbd
00000160: 908b 26bc 35e5 59bd d82c 9b3c 3cb0 733c
00000170: 659d 213d 575b 1a3b 43e3 d6bc 070d c5bc
00000180: d332 0fbd ff2c 2cbc b979 8f3b b551 f83b
00000190: 6699 a23c 7f50 85bb a2b4 fb3c 98a6 e13c
000001a0: be2f 8fbc 4396 593d 3f2b 2a3d ae7f a8bc
000001b0: e298 003b 65c4 64bd 56f0 44bc 2609 72bb
000001c0: 73cc af3a 76be 973b 3ad1 a13d f8ff 80bc
000001d0: 3b20 bcbc d65a e2bb 3b50 ccbb a0d6 84bc
000001e0: 09f8 ff3b 3061 f53c 3061 ff3c c2f3 a4bc
000001f0: d4be 063d dd7c 35bc a65f 6f3c f6a2 223d
00000200: fcd4 8cbd 4cad 34ba 8978 1a3c a44c b13b
00000210: 4386 673d 0d93 63bb ad81 17bd b0c2 323d
00000220: 39c4 f939 daf3 843d 8814 0b3c d6fa 75bc
00000230: 6e94 d03c b0c0 183d 7c24 493d ba93 2f3d
00000240: 6dd1 38bc 7c37 15bd 26c3 10bd 985f e4bc
00000250: c726 623c 47c7 82ba c834 b8bd 9b5c 2bbc
00000260: 2fcf 49bd bcf5 e63c 668f 18bd 1075 40ba
00000270: c099 beba ffd2 9aba 6232 a8bc 568f c43c
00000280: d481 0f3d da03 69bc eb8f 0a3d 5479 6ebd
00000290: bab9 a9bc 54c7 4e3d d94f 7dbd 5b26 8abc
000002a0: 80cb 973d a060 d7b6 7b8d 233d 69fb 7e3d
000002b0: 77e3 503d 1dcf f03d ef65 c0bc 8e4c 873b
000002c0: 513d e23c acfb fbbc 1042 3bbc 1fad bcbb
000002d0: 3989 aa3c 769e 613c 3bf3 b53d 809f bdbc
000002e0: 2ce9 50bd 6cb4 fe3c c58b ffbc 728b 933c
000002f0: f4cb be3d 3c48 903d c9a5 513d 439c 7f3d
00000300: bf6a 13bc 78df 40bd 590f 9c3c c706 9a3c
00000310: e5e2 4c3d 67ee 463d 2a87 a73c 4f83 183d
00000320: a57b 4cbc 963a 03ba ea22 ec3c d2b6 95bc
00000330: 1687 2ebc 2166 80bb 9c5a e4bc ca12 2dbd
00000340: 0132 8bbd 4a7e 3bba a4a1 bebd 1660 a1bc
00000350: 4605 6fb9 3379 31bd c848 3fbd 4998 8bbd
00000360: 84e1 463d ef97 f4bb cfe8 c53c 5b3f 9f3c
00000370: a8fb 1ebd 9abf 9f3c 6939 e7bb 20c9 533c
00000380: a02f 4fbc 6a61 a5ba 6d4f 263d 01b3 a53d
00000390: f769 75bd 9561 13bd 0db4 f93c 702a 80bd
000003a0: 85ad f6bc 6aa7 d83d ba36 e5bc 47ca 9f3c
000003b0: a1e2 bdbc 279d 5dbd 43a1 18bd 3f7a 3b3c
000003c0: 042f 2dbd 891b 98bc 4099 8abd 31cc 883d
000003d0: abd3 713c 6d13 5bbc bcea b83d eef2 7d3d
000003e0: 576a 0b3d 4344 c43d 7f33 a6bc 259a c53b
000003f0: f558 903d 1061 b5bc 87d8 d23c 2ad8 9d3b

enc3.0.bias f4 [128]
-0.005829306 0.025789756 0.01624997 -0.037136354 -0.039176323 -0.033725385 0.019497214 -0.03478084
0.004421381 -0.010947827 -0.03593668 0.034183875 -0.038037553 -0.0045181867 -0.016216986 0.0041446844
-0.013319657 -0.014061392 0.038953375 -0.021697711 0.010896067 -0.03822106 0.026031926 0.03086172
-0.033986274 0.011566231 -0.035641752 -0.040399473 -0.013648713 0.034163795 0.0042060656 -0.0026993707
0.0142672 -0.019191362 0.0032750461 -0.025177522 -0.016579626 0.04086445 0.024215888 0.041641153
-0.0058232686 0.00093845243 -0.0077669034 0.009072102 -0.0042254315 0.014924635 0.006463199 0.030330682
-0.041472226 0.0005005223 0.004381701 0.022369925 -0.022868546 -0.009482728 -0.027777992 -0.0068549714
-0.0136142215 -0.0072291708 0.023237111 0.013258173 0.03201473 0.0054456647 0.027866686 -0.014048692
0.018426836 -0.016308151 0.010438925 -0.017604426 0.024581002 -0.040859047 -0.018513897 -0.036953505
-0.031394508 -0.032008562 -0.0362353 -0.039276823 -0.027544525 -0.0127344625 0.040340737 0.013766331
0.010367732 -0.0009194292 -0.011438023 0.0060256743 -0.02563197 -0.015540764 -0.031121988 -0.012865357
0.030418763 -0.0304482 -0.016551856 -0.025537169 0.00065191597 0.021367736 -0.020684084 0.040047064
-0.006694934 0.039608024 -0.039016206 -0.035037085 0.03382996 -0.0055355676 -0.0047902334 -0.0048760856
0.01704983 -0.020514486 -0.025308983 -0.02586226 0.0018884977 0.02420254 -0.023083793 -0.004220768
-0.002997263 -0.034442693 -0.009683363 -0.03417343 0.019193858 0.038830582 0.034306098 -0.0007876113
-0.03461454 -0.016540803 -0.018580096 -0.005642429 0.022582835 -0.015619724 6.7961846e-05 0.00088677066
00000000: c303 bfbb 0a45 d33c a81e 853c 4a1c 18bd
00000010: 5a77 20bd a123 0abd 9fb8 9f3c 5b76 0ebd
00000020: 3be1 903b 845e 33bc 5732 13bd 6404 0c3d
00000030: 44cd 1bbd 4c0d 94bb 7cd9 84bc 22d0 873b
00000040: b13a 5abc c161 66bc 938d 1f3d 66bf b1bc
00000050: 6b85 323c b08d 1cbd e840 d53c b8d1 fc3c
00000060: 3135 0bbd 4a80 3d3c 16fd 11bd eb79 25bd
00000070: da9e 5fbc 56ef 0b3d 09d3 893b ede7 30bb
00000080: f9c0 693c 3437 9dbc 28a2 563b 1741 cebc
00000090: ffd1 87bc 7b61 273d 6660 c63c ea8f 2a3d
000000a0: 1ed1 bebb 7a02 763a 8281 febb 27a3 143c
000000b0: 7d75 8abb 7586 743c 3ec9 d33b 0d78 f83c
000000c0: c8de 29bd 7c35 033a 5f94 8f3b 2241 b73c
000000d0: d156 bbbc 725d 1bbc ac8e e3bc ab9f e0bb
000000e0: 2f0e 5fbc aee2 ecbb c15b be3c cf38 593c
000000f0: e121 033d 8c71 b23b ad48 e43c 7c2c 66bc
00000100: e0f3 963c ac98 85bc 0608 2b3c 2837 90bc
00000110: 195e c93c d15b 27bd 75aa 97bc 8f5c 17bd
00000120: 8797 00bd 691b 03bd 776b 14bd bce0 20bd
00000130: 0ea5 e1bc 35a4 50bc 543c 253d 2d8c 613c
00000140: 6bdd 293c d905 71ba 8c66 3bbc 0573 c53b
00000150: 23fa d1bc b09e 7ebc 8af3 febc 38c9 52bc
00000160: c530 f93c 816e f9bc c297 87bc 5333 d1bc
00000170: 57e5 2a3a 640b af3c ab71 a9bc 6408 243d
00000180: 2d61 dbbb 063c 223d 75cf 1fbd 0c83 0fbd
00000190: 4991 0a3d b563 b5bb 64f7 9cbb 92c7 9fbb
000001a0: 16ac 8b3c ff0d a8bc c954 cfbc 17dd d3bc
000001b0: 7887 f73a 6844 c63c 391a bdbc 5e4e 8abb
000001c0: bb6d 44bb c813 0dbd f8a6 1ebc 70f9 0bbd
000001d0: 703c 9d3c d10c 1f3d 8d84 0c3d b377 4eba
000001e0: fac7 0dbd 9480 87bc 4935 98bc 20e4 b8bb
000001f0: a3ff b83c dfe9 7fbc bd86 8e38 2c76 683a

enc3.1.weight f4 [128]
1.0026644 1.0401176 0.9770829 1.0254835 0.9634164 1.0538844 1.0057358 0.96878487
0.94348603 0.9767782 1.0050384 0.952586 0.95285267 0.98669755 0.9348657 0.927381
0.86686563 0.96237046 1.0186216 1.0107082 0.9687161 1.0520797 0.95923114 0.9782934
0.96222746 0.99060524 0.9165022 0.95706606 1.0164937 0.95055616 0.89455736 0.9975014
0.9969722 0.9527157 0.96109426 1.0244517 0.9844763 0.99801815 1.0152128 1.0068291
0.9607784 1.0535543 0.9854351 0.96586305 1.0053629 0.9328933 1.0426178 0.96123
1.0001686 0.96633 1.0288455 1.0018103 0.9912486 0.947892 0.9821178 1.0354083
1.006024 0.94275403 0.99791414 0.98335564 1.0996168 0.9249663 0.9776601 1.0103041
0.9410216 1.0145626 1.0232219 0.99710315 0.97206205 1.0004 1.0230578 0.98773766
1.0109937 1.0114133 0.9045654 1.0341524 0.9472757 0.9660873 1.0188634 1.0180385
0.928413 0.88335353 1.0072106 0.9386901 1.019931 0.96896684 0.9832632 0.98478717
0.9868279 0.95315963 0.98164266 1.0017858 1.0107784 0.9635412 0.9657424 0.95547515
1.0076499 0.98667747 0.925203 1.0079769 1.0052915 0.98048425 1.0177515 0.9127822
0.94465035 1.0127968 0.97714156 1.0338141 1.0009286 1.0391548 0.981078 0.9453492
0.931613 1.0085337 0.9927824 0.97175807 0.9673849 0.94823056 0.9396279 0.9972681
0.9954172 0.97979987 0.97014016 0.95600647 0.9173991 0.9165007 0.9236401 0.98059905
00000000: 4f57 803f 9322 853f 1b22 7a3f 0b43 833f
00000010: 75a2 763f afe5 863f f3bb 803f 4902 783f
00000020: 4d88 713f 230e 7a3f 19a5 803f addc 733f
00000030: 27ee 733f 3698 7c3f 5c53 6f3f d768 6d3f
00000040: e8ea 5d3f e95d 763f 3162 823f e35e 813f
00000050: c7fd 773f 8caa 863f 2c90 753f 7071 7a3f
00000060: 8a54 763f 4e98 7d3f e39f 6a3f 4802 753f
00000070: 771c 823f a657 733f b601 653f 405c 7f3f
00000080: 9239 7f3f 2de5 733f 460a 763f 3c21 833f
00000090: a406 7c3f 1e7e 7f3f 7ef2 813f c7df 803f
000000a0: 93f5 753f deda 863f 7a45 7c3f cd42 773f
000000b0: bbaf 803f 18d2 6e3f 8074 853f 2b13 763f
000000c0: 8605 803f 6761 773f 36b1 833f 523b 803f
000000d0: 78c2 7d3f 0da9 723f 126c 7b3f 4288 843f
000000e0: 65c5 803f 5458 713f 4d77 7f3f 32bd 7b3f
000000f0: 3ec0 8c3f 97ca 6c3f ef47 7a3f a551 813f
00000100: cbe6 703f 30dd 813f eff8 823f 2742 7f3f
00000110: 0fd9 783f 1b0d 803f 8ff3 823f 60dc 7c3f
00000120: 3e68 813f fe75 813f 9991 673f 1b5f 843f
00000130: a980 723f 7f51 773f 1e6a 823f 164f 823f
00000140: 79ac 6d3f 7523 623f 47ec 803f ff4d 703f
00000150: 198d 823f 360e 783f 23b7 7b3f 031b 7c3f
00000160: c1a0 7c3f 4502 743f ef4c 7b3f 843a 803f
00000170: 3061 813f a3aa 763f e53a 773f 059a 743f
00000180: acfa 803f e596 7c3f 1bda 6c3f 6305 813f
00000190: 64ad 803f 0401 7b3f ae45 823f 18ac 693f
000001a0: 9bd4 713f 53a3 813f f325 7a3f 0554 843f
000001b0: 6e1e 803f 0603 853f ee27 7b3f 6802 723f
000001c0: 317e 6e3f a217 813f fd26 7e3f 23c5 783f
000001d0: 89a6 773f 3dbf 723f 748b 703f f64c 7f3f
000001e0: a9d3 7e3f 2ad4 7a3f 1b5b 783f d7bc 743f
000001f0: abda 6a3f ca9f 6a3f ad73 6c3f 8a08 7b3f

enc3.1.bias f4 [128]
-0.08365856 -0.17931959 -0.01967002 -0.064558424 -0.19207837 -0.027987432 -0.022260789 -0.01374172
-0.11030327 -0.1372544 -0.047787793 -0.05861767 -0.13093436 -0.09829947 -0.05208715 -0.16955765
-0.17821072 -0.018078897 -0.1341499 -0.1110339 -0.10260189 -0.13836093 -0.1373221 -0.053979352
-0.07531481 -0.10459362 -0.15314694 -0.08156619 -0.14709327 -0.078384176 -0.074753076 -0.14065062
-0.14810699 -0.0683661 -0.06219572 -0.22259617 -0.015915722 -0.11894835 -0.08002854 -0.02793717
-0.11171892 -0.007362379 0.008889282 -0.055214927 -0.15336525 -0.07334912 -0.06692126 -0.1520973
-0.20898563 -0.20855933 -0.052402936 -0.10568697 -0.09435622 -0.071636386 -0.14048286 -0.11774809
-0.09806433 0.009004266 -0.14571199 -0.13510418 -0.2421619 -0.08680262 -0.03836966 -0.15231413
-0.0829446 -0.11111436 -0.18346532 -0.027782626 -0.11617141 -0.01131766 -0.13945407 -0.038169347
-0.20729166 -0.0054299063 -0.1014458 0.014992093 -0.102849714 -0.03462702 0.012546953 -0.15101385
-0.08165924 -0.12404686 0.0028414475 -0.033888914 -0.14286198 -0.048899807 -0.06088967 -0.02820531
-0.019060897 -0.09550676 -0.030752543 -0.07222969 -0.09486407 -0.15880202 -0.12797512 -0.11594496
-0.18781851 -0.025564596 -0.17055161 -0.0473859 -0.09360999 -0.115010664 -0.09300824 -0.080720015
0.007931402 -0.0576346 -0.19686465 -0.1388805 -0.077364236 -0.2290952 -0.071886234 -0.110421345
-0.09738916 -0.08095285 -0.115801364 -0.061265092 -0.060978908 -0.13395101 -0.11478888 -0.02504801
-0.13578568 -0.10061752 -0.05199266 -0.18249032 -0.19067574 -0.10065188 -0.111200765 -0.04673121
00000000: 2e55 abbd 8e9f 37be 0623 a1bc 3537 84bd
00000010: 31b0 44be e645 e5bc 425c b6bc f324 61bc
00000020: aee6 e1bd 6b8c 0cbe 22bd 43bd 1519 70bd
00000030: a813 06be 3c51 c9bd 5659 55bd 85a0 2dbe
00000040: df7c 36be 321a 94bc 975e 09be be65 e3bd
00000050: f120 d2bd 7dae 0dbe 2a9e 0cbe 7419 5dbd
00000060: a73e 9abd 2e35 d6bd 8dd2 1cbe 2d0c a7bd
00000070: 9e9f 16be e287 a0bd 2418 99bd b706 10be
00000080: 5ca9 17be 8703 8cbd f0c0 7ebd 40f0 63be
00000090: b061 82bc 319b f3bd 01e6 a3bd 7edc e4bc
000000a0: e4cc e4bd 1d40 f1bb 5aa4 113c 0c29 62bd
000000b0: c80b 1dbe 1038 96bd 030e 89bd 65bf 1bbe
000000c0: 5400 56be 9490 55be 76a4 56bd 6972 d8bd
000000d0: d53d c1bd 19b6 92bd bdda 0fbe e925 f1bd
000000e0: f4d5 c8bd a186 133c 8635 15be c058 0abe
000000f0: 4af9 77be 92c5 b1bd 8129 1dbd 3cf8 1bbe
00000100: dcde a9bd ed8f e3bd 55de 3bbe 6498 e3bc
00000110: 47eb edbd b56d 39bc 0ccd 0ebe 7657 1cbd
00000120: 4444 54be 5bed b1bb d1c2 cfbd 65a1 753c
00000130: dfa2 d2bd 10d5 0dbd bc91 4d3c 60a3 1abe
00000140: f63c a7bd 480c febd 9437 3a3b 1acf 0abd
00000150: 694a 12be 2a4b 48bd 7267 79bd d30e e7bc
00000160: 9925 9cbc 0c99 c3bd c2ec fbbc 29ed 93bd
00000170: 1848 c2bd ff9c 22be e90b 03be 8d74 edbd
00000180: 7f53 40be d86c d1bc 15a5 2ebe b817 42bd
00000190: 98b6 bfbd b68a ebbd 1b7b bebd 8950 a5bd
000001a0: b6f2 013c 4212 6cbd e396 49be b136 0ebe
000001b0: 2471 9ebd ef97 6abe 1739 93bd 9624 e2bd
000001c0: f873 c7bd 9cca a5bd 4429 edbd 1bf1 7abd
000001d0: 05c5 79bd 742a 09be 6f16 ebbd 7c31 cdbc
000001e0: 670b 0bbe 8f10 cebd 41f6 54bd bede 3abe
000001f0: 8040 43be 9322 cebd 3abd e3bd 3a69 3fbd

enc3.1.running_mean f4 [128]
-0.9828374 0.95525146 -2.6450415 -2.4544404 0.2603015 1.0540181 -4.6535864 -3.345746
0.87230325 0.2714429 -3.2883012 -2.75315 0.24106029 -5.4250584 -1.8961569 0.6730007
1.4369718 -3.8779218 -1.2395588 -1.9316787 2.4530282 1.4310541 0.5234599 -0.95433253
-0.78929186 -1.8649935 1.6636192 1.5244824 0.81811076 1.7785764 -3.6487815 0.19241561
-0.8848939 -0.06721739 -2.2631397 0.8050687 -4.077174 0.78830785 0.2557944 -1.1578895
-1.3802617 -6.755705 -5.3344417 -2.6464248 -0.1591498 -2.4549317 1.5377612 1.1689556
0.608525 0.41790035 -4.237134 0.27687335 -0.40542364 -2.6362622 0.70561 -0.53479195
-1.2486912 -2.2438745 0.4542001 0.28874937 -2.280962 0.9767306 -6.2686357 1.2060686
-3.5547361 -0.6829134 -0.25480393 -3.479771 -1.1536301 -3.1817844 3.1552422 -3.174054
1.1540391 -0.3933945 2.8033762 1.0697322 0.092823654 -3.9364145 -1.4574999 2.1800525
-2.7982683 -2.4845366 -1.5446268 -5.1783834 -1.8540066 -2.2423184 -2.9646335 -2.4681692
-3.4941256 -1.6848116 -0.72949415 -0.97454095 -0.2720132 -1.3844982 -0.40005305 -0.28009576
0.7360006 -0.8370454 1.385409 -0.4071261 -1.6298573 -0.37407368 2.199146 -4.338194
-0.048532512 -1.4106704 0.91460216 -2.7565448 0.3838726 0.19290778 1.2015003 -0.81572926
1.6017368 -1.8870789 -0.84795016 0.07687487 1.0567003 0.37755966 1.5061188 -1.2150247
-0.21364912 -4.0289173 -1.4971946 1.0540726 1.2463894 -3.4105184 0.33816284 -2.650659
00000000: 3b9b 7bbf 5c8b 743f 5c48 29c0 8d15 1dc0
00000010: 3d46 853e 11ea 863f 2eea 94c0 b420 56c0
00000020: 444f 5f3f 90fa 8a3e 8773 52c0 9c33 30c0
00000030: 82d8 763e 149a adc0 45b5 f2bf c649 2c3f
00000040: b1ee b73f df2f 78c0 dda9 9ebf 3f41 f7bf
00000050: 6afe 1c40 c82c b73f 7801 063f 234f 74bf
00000060: 080f 4abf 1bb8 eebf 79f1 d43f 3d22 c33f
00000070: b56f 513f 64a8 e33f a385 69c0 9908 453e
00000080: 6888 62bf 45a9 89bd 48d7 10c0 fb18 4e3f
00000090: 3678 82c0 8bce 493f 7cf7 823e b935 94bf
000000a0: 6aac b0bf bc2e d8c0 bfb3 aac0 065f 29c0
000000b0: 2af8 22be 9a1d 1dc0 5cd5 c43f 56a0 953f
000000c0: 4bc8 1b3f 09f7 d53e 9a96 87c0 58c2 8d3e
000000d0: b093 cfbe 85b8 28c0 dba2 343f 20e8 08bf
000000e0: 1dd5 9fbf a49b 0fc0 ea8c e83e f5d6 933e
000000f0: 48fb 11c0 040b 7a3f aa98 c8c0 7560 9a3f
00000100: cc80 63c0 6ad3 2ebf a975 82be 91b4 5ec0
00000110: 27aa 93bf 5ba2 4bc0 7def 4940 b323 4bc0
00000120: 8eb7 933f 016b c9be 846a 3340 fcec 883f
00000130: 541a be3d 37ee 7bc0 5b8f babf fb85 0b40
00000140: d416 33c0 a602 1fc0 55b6 c5bf 51b5 a5c0
00000150: 1750 edbf 2582 0fc0 8ebc 3dc0 7cf6 1dc0
00000160: c19f 5fc0 e8a7 d7bf 21c0 3abf 847b 79bf
00000170: 5045 8bbe 3d37 b1bf c1d3 ccbe b668 8fbe
00000180: 896a 3c3f 9b48 56bf 1555 b13f d572 d0be
00000190: 2a9f d0bf 9686 bfbe cfbe 0c40 7cd2 8ac0
000001a0: 07ca 46bd d990 b4bf 5e23 6a3f 3b6b 30c0
000001b0: f38a c43e 9e89 453e c3ca 993f a2d3 50bf
000001c0: b605 cd3f cd8b f1bf 4313 59bf 9270 9d3d
000001d0: f541 873f 804f c13e 80c8 c03f ee85 9bbf
000001e0: d6c6 5abe e4ec 80c0 13a4 bfbf daeb 863f
000001f0: b089 9f3f ef45 5ac0 ae23 ad3e 66a4 29c0

enc3.1.running_var f4 [128]
6.8474607 3.7084093 3.663116 5.5900536 10.248182 1.8524667 5.0996175 11.275699
4.3030767 11.368467 7.3142147 7.599999 3.6760569 7.387039 7.3246384 5.5409584
5.642513 4.818703 2.8694608 6.2541127 6.1170125 3.4731796 12.261956 5.81746
3.2152758 6.023384 14.089939 5.3772 2.7063193 5.682222 7.750831 7.3526955
3.9408636 7.3820176 20.494793 8.31804 7.680641 6.68532 4.364816 5.1582584
5.201273 3.7353191 10.185947 7.0530624 4.881812 6.402885 4.816151 6.358412
2.9225295 10.0588455 8.124733 5.3610926 3.7734315 9.252751 3.3151395 8.618904
13.282475 7.040458 7.75237 3.3876057 3.9804535 5.004135 6.570116 9.011464
9.166186 4.661468 11.523331 10.652683 6.47447 20.41602 5.1798463 10.181193
7.08541 8.118449 2.0391974 14.18551 2.2110205 18.42886 6.9576726 6.631708
8.545364 4.2815433 5.1869683 10.740634 6.514964 7.3948336 5.5768547 10.6741495
9.811421 5.963756 7.1857347 4.444141 4.7859783 3.3907363 3.2337284 5.389362
4.310622 7.0893483 14.453649 5.037877 7.224383 4.355341 5.1963534 8.844619
7.697447 7.7856283 8.848006 3.6357179 7.6790113 8.9583235 2.9275634 4.3948903
3.2991524 7.709776 3.7082758 5.779367 3.596657 3.382589 8.344855 11.824822
4.459577 9.45886 3.2124884 6.2022285 11.937865 7.7789917 9.883969 6.3856106
00000000: 661e db40 9456 6d40 7e70 6a40 b8e1 b240
00000010: 8ef8 2341 a11d ed3f 1130 a340 4369 3441
00000020: ceb2 8940 3ee5 3541 0c0e ea40 3133 f340
00000030: 8444 6b40 a062 ec40 7063 ea40 884f b140
00000040: 778f b440 d132 9a40 3fa5 3740 b121 c840
00000050: 91be c340 9348 5e40 f930 4441 a228 ba40
00000060: 14c7 4d40 90bf c040 6470 6141 0612 ac40
00000070: 5634 2d40 c3d4 b540 cf06 f840 4849 eb40
00000080: 1c37 7c40 7d39 ec40 56f5 a341 b116 0541
00000090: d0c7 f540 24ee d540 93ac 8b40 7410 a540
000000a0: d470 a640 780f 6f40 a4f9 2241 b0b2 e140
000000b0: ce37 9c40 6fe4 cc40 e91d 9a40 1c78 cb40
000000c0: b90a 3b40 08f1 2041 e8fe 0141 128e ab40
000000d0: e77f 7140 450b 1441 3f2b 5440 08e7 0941
000000e0: 0585 5441 6f4b e140 6a13 f840 88ce 5840
000000f0: c0bf 7e40 e021 a040 643e d240 f52e 1041
00000100: b3a8 1241 bf2a 9540 905f 3841 6471 2a41
00000110: dc2e cf40 0254 a341 4dc1 a540 2be6 2241
00000120: aebb e240 2be5 0141 3682 0240 d9f7 6241
00000130: 5c81 0d40 4e6e 9341 41a5 de40 f436 d440
00000140: d0b9 0841 6702 8940 a5fb a540 a3d9 2b41
00000150: 967a d040 7aa2 ec40 9875 b240 51c9 2a41
00000160: 95fb 1c41 17d7 be40 8af1 e540 6736 8e40
00000170: bc26 9940 d301 5940 68f5 4e40 a775 ac40
00000180: 9ef0 8940 f1db e240 2542 6741 4a36 a140
00000190: 252e e740 f45e 8b40 8748 a640 8f83 0d41
000001a0: 7c51 f640 de23 f940 6f91 0d41 9aaf 6840
000001b0: 76ba f540 4b55 0f41 335d 3b40 f1a2 8c40
000001c0: 5025 5340 7cb6 f640 6454 6d40 93f0 b840
000001d0: a12f 6640 577c 5840 8784 0541 7932 3d41
000001e0: dbb4 8e40 7e57 1741 6999 4d40 a878 c640
000001f0: 7f01 3f41 80ed f840 bd24 1e41 ec56 cc40
